…
540/540 [==============================] - 0s 44us/step
[DEBUG] NN Evaluated Accuracy = 0.07777777794334624.
Miscoding:  0.945007791874221 Inaccuracy:  0.4288377874456184 Redundancy:  0.46356033452807643 Nescience:  0.540804327758297
[DEBUG] Testing adding a new feature to cnn. 2 nº of features.
[DEBUG] Testing adding a new layer... Current hidden layers: [3, 3].
DEBUG] SAVED THIS CONFIGURATION.
_________________________________________________________________
Layer (type)                 Output Shape              Param #
=================================================================
dense_5 (Dense)              (None, 3)                 6
_________________________________________________________________
dense_6 (Dense)              (None, 3)                 12
_________________________________________________________________
dense_7 (Dense)              (None, 10)                40
=================================================================
Total params: 58
Trainable params: 58
Non-trainable params: 0
_________________________________________________________________

 32/540 [>.............................] - ETA: 0s
540/540 [==============================] - 0s 142us/step
[DEBUG] NN Evaluated Accuracy = 0.07777777794334624.
Added new layer - Nescience:  0.5577388513794613
[DEBUG] Testing adding a new unit... Hidden layers: [4, 3]
DEBUG] SAVED THIS CONFIGURATION.
_________________________________________________________________
Layer (type)                 Output Shape              Param #
=================================================================
dense_8 (Dense)              (None, 4)                 8
_________________________________________________________________
dense_9 (Dense)              (None, 3)                 15
_________________________________________________________________
dense_10 (Dense)             (None, 10)                40
=================================================================
Total params: 63
Trainable params: 63
Non-trainable params: 0
_________________________________________________________________

 32/540 [>.............................] - ETA: 0s
540/540 [==============================] - 0s 157us/step
[DEBUG] NN Evaluated Accuracy = 0.07777777794334624.
Added new unit - Nescience:  0.5614526139924406
[DEBUG] Nescience has been reduced after adding new unit
[DEBUG] Testing adding a new unit... Hidden layers: [4, 4]
DEBUG] SAVED THIS CONFIGURATION.
_________________________________________________________________
Layer (type)                 Output Shape              Param #
=================================================================
dense_11 (Dense)             (None, 4)                 8
_________________________________________________________________
dense_12 (Dense)             (None, 4)                 20
_________________________________________________________________
dense_13 (Dense)             (None, 10)                50
=================================================================
Total params: 78
Trainable params: 78
Non-trainable params: 0
_________________________________________________________________

 32/540 [>.............................] - ETA: 1s
540/540 [==============================] - 0s 188us/step
[DEBUG] NN Evaluated Accuracy = 0.1518518516310939.
Added new unit - Nescience:  0.5480983388426391
[DEBUG] Nescience has been reduced after adding new unit
Tolerance: 0.045000000000000005
[DEBUG] Testing adding a new feature to cnn. 2 nº of features.
DEBUG] Nescience reduced - SAVED THIS CONFIGURATION.
_________________________________________________________________
Layer (type)                 Output Shape              Param #
=================================================================
dense_14 (Dense)             (None, 4)                 12
_________________________________________________________________
dense_15 (Dense)             (None, 4)                 20
_________________________________________________________________
dense_16 (Dense)             (None, 10)                50
=================================================================
Total params: 82
Trainable params: 82
Non-trainable params: 0
_________________________________________________________________

 32/540 [>.............................] - ETA: 1s
540/540 [==============================] - 0s 188us/step
[DEBUG] NN Evaluated Accuracy = 0.2222222222222222.
Added new feature - Nescience:  0.5909858688802034
[DEBUG] Testing adding a new layer... Current hidden layers: [4, 4, 3].
DEBUG] SAVED THIS CONFIGURATION.
_________________________________________________________________
Layer (type)                 Output Shape              Param #
=================================================================
dense_17 (Dense)             (None, 4)                 12
_________________________________________________________________
dense_18 (Dense)             (None, 4)                 20
_________________________________________________________________
dense_19 (Dense)             (None, 3)                 15
_________________________________________________________________
dense_20 (Dense)             (None, 10)                40
=================================================================
Total params: 87
Trainable params: 87
Non-trainable params: 0
_________________________________________________________________

 32/540 [>.............................] - ETA: 1s
540/540 [==============================] - 0s 247us/step
[DEBUG] NN Evaluated Accuracy = 0.14444444449963392.
Added new layer - Nescience:  0.6196118467720879
[DEBUG] Testing adding a new unit... Hidden layers: [5, 4, 3]
DEBUG] SAVED THIS CONFIGURATION.
_________________________________________________________________
Layer (type)                 Output Shape              Param #
=================================================================
dense_21 (Dense)             (None, 5)                 15
_________________________________________________________________
dense_22 (Dense)             (None, 4)                 24
_________________________________________________________________
dense_23 (Dense)             (None, 3)                 15
_________________________________________________________________
dense_24 (Dense)             (None, 10)                40
=================================================================
Total params: 94
Trainable params: 94
Non-trainable params: 0
_________________________________________________________________

 32/540 [>.............................] - ETA: 1s
540/540 [==============================] - 0s 248us/step
[DEBUG] NN Evaluated Accuracy = 0.20370370375889318.
Added new unit - Nescience:  0.607379468653137
[DEBUG] Nescience has been reduced after adding new unit
[DEBUG] Testing adding a new unit... Hidden layers: [5, 5, 3]
DEBUG] SAVED THIS CONFIGURATION.
_________________________________________________________________
Layer (type)                 Output Shape              Param #
=================================================================
dense_25 (Dense)             (None, 5)                 15
_________________________________________________________________
dense_26 (Dense)             (None, 5)                 30
_________________________________________________________________
dense_27 (Dense)             (None, 3)                 18
_________________________________________________________________
dense_28 (Dense)             (None, 10)                40
=================================================================
Total params: 103
Trainable params: 103
Non-trainable params: 0
_________________________________________________________________

 32/540 [>.............................] - ETA: 2s
540/540 [==============================] - 0s 290us/step
[DEBUG] NN Evaluated Accuracy = 0.1814814818126184.
Added new unit - Nescience:  0.6068084032247516
[DEBUG] Nescience has been reduced after adding new unit
[DEBUG] Testing adding a new unit... Hidden layers: [5, 5, 4]
DEBUG] SAVED THIS CONFIGURATION.
_________________________________________________________________
Layer (type)                 Output Shape              Param #
=================================================================
dense_29 (Dense)             (None, 5)                 15
_________________________________________________________________
dense_30 (Dense)             (None, 5)                 30
_________________________________________________________________
dense_31 (Dense)             (None, 4)                 24
_________________________________________________________________
dense_32 (Dense)             (None, 10)                50
=================================================================
Total params: 119
Trainable params: 119
Non-trainable params: 0
_________________________________________________________________

 32/540 [>.............................] - ETA: 2s
540/540 [==============================] - 0s 290us/step
[DEBUG] NN Evaluated Accuracy = 0.35370370414521957.
Added new unit - Nescience:  0.5602609302957667
[DEBUG] Nescience has been reduced after adding new unit
Tolerance: 0.04050000000000001
[DEBUG] Testing adding a new feature to cnn. 3 nº of features.
[DEBUG] Testing adding a new layer... Current hidden layers: [5, 5, 4, 3].
DEBUG] SAVED THIS CONFIGURATION.
_________________________________________________________________
Layer (type)                 Output Shape              Param #
=================================================================
dense_37 (Dense)             (None, 5)                 15
_________________________________________________________________
dense_38 (Dense)             (None, 5)                 30
_________________________________________________________________
dense_39 (Dense)             (None, 4)                 24
_________________________________________________________________
dense_40 (Dense)             (None, 3)                 15
_________________________________________________________________
dense_41 (Dense)             (None, 10)                40
=================================================================
Total params: 124
Trainable params: 124
Non-trainable params: 0
_________________________________________________________________

 32/540 [>.............................] - ETA: 2s
540/540 [==============================] - 0s 331us/step
[DEBUG] NN Evaluated Accuracy = 0.3499999995584841.
Added new layer - Nescience:  0.56824183894441
[DEBUG] Testing adding a new unit... Hidden layers: [6, 5, 4, 3]
[DEBUG] Testing adding a new unit... Hidden layers: [5, 6, 4, 3]
[DEBUG] Testing adding a new unit... Hidden layers: [5, 5, 5, 3]
[DEBUG] Testing adding a new unit... Hidden layers: [5, 5, 4, 4]
Tolerance: 0.03645000000000001
[DEBUG] Testing adding a new feature to cnn. 3 nº of features.
DEBUG] Nescience reduced - SAVED THIS CONFIGURATION.
_________________________________________________________________
Layer (type)                 Output Shape              Param #
=================================================================
dense_62 (Dense)             (None, 5)                 20
_________________________________________________________________
dense_63 (Dense)             (None, 5)                 30
_________________________________________________________________
dense_64 (Dense)             (None, 4)                 24
_________________________________________________________________
dense_65 (Dense)             (None, 3)                 15
_________________________________________________________________
dense_66 (Dense)             (None, 10)                40
=================================================================
Total params: 129
Trainable params: 129
Non-trainable params: 0
_________________________________________________________________

 32/540 [>.............................] - ETA: 3s
540/540 [==============================] - 0s 451us/step
[DEBUG] NN Evaluated Accuracy = 0.43333333355409126.
Added new feature - Nescience:  0.5693392511421785
[DEBUG] Testing adding a new layer... Current hidden layers: [5, 5, 4, 3, 3].
DEBUG] SAVED THIS CONFIGURATION.
_________________________________________________________________
Layer (type)                 Output Shape              Param #
=================================================================
dense_67 (Dense)             (None, 5)                 20
_________________________________________________________________
dense_68 (Dense)             (None, 5)                 30
_________________________________________________________________
dense_69 (Dense)             (None, 4)                 24
_________________________________________________________________
dense_70 (Dense)             (None, 3)                 15
_________________________________________________________________
dense_71 (Dense)             (None, 3)                 12
_________________________________________________________________
dense_72 (Dense)             (None, 10)                40
=================================================================
Total params: 141
Trainable params: 141
Non-trainable params: 0
_________________________________________________________________

 32/540 [>.............................] - ETA: 3s
540/540 [==============================] - 0s 484us/step
[DEBUG] NN Evaluated Accuracy = 0.31111111177338496.
Added new layer - Nescience:  0.5961052048287
[DEBUG] Testing adding a new unit... Hidden layers: [6, 5, 4, 3, 3]
DEBUG] SAVED THIS CONFIGURATION.
_________________________________________________________________
Layer (type)                 Output Shape              Param #
=================================================================
dense_73 (Dense)             (None, 6)                 24
_________________________________________________________________
dense_74 (Dense)             (None, 5)                 35
_________________________________________________________________
dense_75 (Dense)             (None, 4)                 24
_________________________________________________________________
dense_76 (Dense)             (None, 3)                 15
_________________________________________________________________
dense_77 (Dense)             (None, 3)                 12
_________________________________________________________________
dense_78 (Dense)             (None, 10)                40
=================================================================
Total params: 150
Trainable params: 150
Non-trainable params: 0
_________________________________________________________________

 32/540 [>.............................] - ETA: 5s
540/540 [==============================] - 0s 672us/step
[DEBUG] NN Evaluated Accuracy = 0.27777777821929367.
Added new unit - Nescience:  0.6259806895691667
[DEBUG] Nescience has been reduced after adding new unit
[DEBUG] Testing adding a new unit... Hidden layers: [6, 6, 4, 3, 3]
DEBUG] SAVED THIS CONFIGURATION.
_________________________________________________________________
Layer (type)                 Output Shape              Param #
=================================================================
dense_79 (Dense)             (None, 6)                 24
_________________________________________________________________
dense_80 (Dense)             (None, 6)                 42
_________________________________________________________________
dense_81 (Dense)             (None, 4)                 28
_________________________________________________________________
dense_82 (Dense)             (None, 3)                 15
_________________________________________________________________
dense_83 (Dense)             (None, 3)                 12
_________________________________________________________________
dense_84 (Dense)             (None, 10)                40
=================================================================
Total params: 161
Trainable params: 161
Non-trainable params: 0
_________________________________________________________________

 32/540 [>.............................] - ETA: 4s
540/540 [==============================] - 0s 635us/step
[DEBUG] NN Evaluated Accuracy = 0.3444444448859603.
Added new unit - Nescience:  0.5945035219727127
[DEBUG] Nescience has been reduced after adding new unit
[DEBUG] Testing adding a new unit... Hidden layers: [6, 6, 5, 3, 3]
[DEBUG] Testing adding a new unit... Hidden layers: [6, 6, 4, 4, 3]
DEBUG] SAVED THIS CONFIGURATION.
_________________________________________________________________
Layer (type)                 Output Shape              Param #
=================================================================
dense_91 (Dense)             (None, 6)                 24
_________________________________________________________________
dense_92 (Dense)             (None, 6)                 42
_________________________________________________________________
dense_93 (Dense)             (None, 4)                 28
_________________________________________________________________
dense_94 (Dense)             (None, 4)                 20
_________________________________________________________________
dense_95 (Dense)             (None, 3)                 15
_________________________________________________________________
dense_96 (Dense)             (None, 10)                40
=================================================================
Total params: 169
Trainable params: 169
Non-trainable params: 0
_________________________________________________________________

 32/540 [>.............................] - ETA: 5s
540/540 [==============================] - 0s 670us/step
[DEBUG] NN Evaluated Accuracy = 0.32962963007114554.
Added new unit - Nescience:  0.6119258585396318
[DEBUG] Nescience has been reduced after adding new unit
[DEBUG] Testing adding a new unit... Hidden layers: [6, 6, 4, 4, 4]
DEBUG] SAVED THIS CONFIGURATION.
_________________________________________________________________
Layer (type)                 Output Shape              Param #
=================================================================
dense_97 (Dense)             (None, 6)                 24
_________________________________________________________________
dense_98 (Dense)             (None, 6)                 42
_________________________________________________________________
dense_99 (Dense)             (None, 4)                 28
_________________________________________________________________
dense_100 (Dense)            (None, 4)                 20
_________________________________________________________________
dense_101 (Dense)            (None, 4)                 20
_________________________________________________________________
dense_102 (Dense)            (None, 10)                50
=================================================================
Total params: 184
Trainable params: 184
Non-trainable params: 0
_________________________________________________________________

 32/540 [>.............................] - ETA: 5s
540/540 [==============================] - 0s 686us/step
[DEBUG] NN Evaluated Accuracy = 0.4240740747363479.
Added new unit - Nescience:  0.5756988897088394
[DEBUG] Nescience has been reduced after adding new unit
Tolerance: 0.03280500000000001
[DEBUG] Testing adding a new feature to cnn. 4 nº of features.
[DEBUG] Testing adding a new layer... Current hidden layers: [6, 6, 4, 4, 4, 3].
[DEBUG] Testing adding a new unit... Hidden layers: [7, 6, 4, 4, 4]
DEBUG] SAVED THIS CONFIGURATION.
_________________________________________________________________
Layer (type)                 Output Shape              Param #
=================================================================
dense_116 (Dense)            (None, 7)                 28
_________________________________________________________________
dense_117 (Dense)            (None, 6)                 48
_________________________________________________________________
dense_118 (Dense)            (None, 4)                 28
_________________________________________________________________
dense_119 (Dense)            (None, 4)                 20
_________________________________________________________________
dense_120 (Dense)            (None, 4)                 20
_________________________________________________________________
dense_121 (Dense)            (None, 10)                50
=================================================================
Total params: 194
Trainable params: 194
Non-trainable params: 0
_________________________________________________________________

 32/540 [>.............................] - ETA: 5s
540/540 [==============================] - 0s 746us/step
[DEBUG] NN Evaluated Accuracy = 0.4222222224429802.
Added new unit - Nescience:  0.5783825591321486
[DEBUG] Nescience has been reduced after adding new unit
[DEBUG] Testing adding a new unit... Hidden layers: [7, 7, 4, 4, 4]
[DEBUG] Testing adding a new unit... Hidden layers: [7, 6, 5, 4, 4]
[DEBUG] Testing adding a new unit... Hidden layers: [7, 6, 4, 5, 4]
DEBUG] SAVED THIS CONFIGURATION.
_________________________________________________________________
Layer (type)                 Output Shape              Param #
=================================================================
dense_134 (Dense)            (None, 7)                 28
_________________________________________________________________
dense_135 (Dense)            (None, 6)                 48
_________________________________________________________________
dense_136 (Dense)            (None, 4)                 28
_________________________________________________________________
dense_137 (Dense)            (None, 5)                 25
_________________________________________________________________
dense_138 (Dense)            (None, 4)                 24
_________________________________________________________________
dense_139 (Dense)            (None, 10)                50
=================================================================
Total params: 203
Trainable params: 203
Non-trainable params: 0
_________________________________________________________________

 32/540 [>.............................] - ETA: 7s
540/540 [==============================] - 1s 962us/step
[DEBUG] NN Evaluated Accuracy = 0.3685185189600344.
Added new unit - Nescience:  0.5922725539225681
[DEBUG] Nescience has been reduced after adding new unit
[DEBUG] Testing adding a new unit... Hidden layers: [7, 6, 4, 5, 5]
DEBUG] SAVED THIS CONFIGURATION.
_________________________________________________________________
Layer (type)                 Output Shape              Param #
=================================================================
dense_140 (Dense)            (None, 7)                 28
_________________________________________________________________
dense_141 (Dense)            (None, 6)                 48
_________________________________________________________________
dense_142 (Dense)            (None, 4)                 28
_________________________________________________________________
dense_143 (Dense)            (None, 5)                 25
_________________________________________________________________
dense_144 (Dense)            (None, 5)                 30
_________________________________________________________________
dense_145 (Dense)            (None, 10)                60
=================================================================
Total params: 219
Trainable params: 219
Non-trainable params: 0
_________________________________________________________________

 32/540 [>.............................] - ETA: 6s
540/540 [==============================] - 0s 867us/step
[DEBUG] NN Evaluated Accuracy = 0.4259259263674418.
Added new unit - Nescience:  0.5777156830079743
[DEBUG] Nescience has been reduced after adding new unit
Tolerance: 0.02952450000000001
[DEBUG] Testing adding a new feature to cnn. 4 nº of features.
DEBUG] Nescience reduced - SAVED THIS CONFIGURATION.
_________________________________________________________________
Layer (type)                 Output Shape              Param #
=================================================================
dense_146 (Dense)            (None, 7)                 35
_________________________________________________________________
dense_147 (Dense)            (None, 6)                 48
_________________________________________________________________
dense_148 (Dense)            (None, 4)                 28
_________________________________________________________________
dense_149 (Dense)            (None, 5)                 25
_________________________________________________________________
dense_150 (Dense)            (None, 5)                 30
_________________________________________________________________
dense_151 (Dense)            (None, 10)                60
=================================================================
Total params: 226
Trainable params: 226
Non-trainable params: 0
_________________________________________________________________

 32/540 [>.............................] - ETA: 7s
540/540 [==============================] - 1s 981us/step
[DEBUG] NN Evaluated Accuracy = 0.49444444444444446.
Added new feature - Nescience:  0.5469864766863947
[DEBUG] Testing adding a new layer... Current hidden layers: [7, 6, 4, 5, 5, 3].
DEBUG] SAVED THIS CONFIGURATION.
_________________________________________________________________
Layer (type)                 Output Shape              Param #
=================================================================
dense_152 (Dense)            (None, 7)                 35
_________________________________________________________________
dense_153 (Dense)            (None, 6)                 48
_________________________________________________________________
dense_154 (Dense)            (None, 4)                 28
_________________________________________________________________
dense_155 (Dense)            (None, 5)                 25
_________________________________________________________________
dense_156 (Dense)            (None, 5)                 30
_________________________________________________________________
dense_157 (Dense)            (None, 3)                 18
_________________________________________________________________
dense_158 (Dense)            (None, 10)                40
=================================================================
Total params: 224
Trainable params: 224
Non-trainable params: 0
_________________________________________________________________

 32/540 [>.............................] - ETA: 7s
540/540 [==============================] - 1s 939us/step
[DEBUG] NN Evaluated Accuracy = 0.42777777711550397.
Added new layer - Nescience:  0.5590954113144551
[DEBUG] Testing adding a new unit... Hidden layers: [8, 6, 4, 5, 5, 3]
DEBUG] SAVED THIS CONFIGURATION.
_________________________________________________________________
Layer (type)                 Output Shape              Param #
=================================================================
dense_159 (Dense)            (None, 8)                 40
_________________________________________________________________
dense_160 (Dense)            (None, 6)                 54
_________________________________________________________________
dense_161 (Dense)            (None, 4)                 28
_________________________________________________________________
dense_162 (Dense)            (None, 5)                 25
_________________________________________________________________
dense_163 (Dense)            (None, 5)                 30
_________________________________________________________________
dense_164 (Dense)            (None, 3)                 18
_________________________________________________________________
dense_165 (Dense)            (None, 10)                40
=================================================================
Total params: 235
Trainable params: 235
Non-trainable params: 0
_________________________________________________________________

 32/540 [>.............................] - ETA: 7s
540/540 [==============================] - 0s 920us/step
[DEBUG] NN Evaluated Accuracy = 0.4722222215599484.
Added new unit - Nescience:  0.5532702567326787
…
[DEBUG] Testing adding a new unit... Hidden layers: [8, 7, 4, 5, 5, 3]
[DEBUG] Testing adding a new unit... Hidden layers: [8, 6, 5, 5, 5, 3]
[DEBUG] Testing adding a new unit... Hidden layers: [8, 6, 4, 6, 5, 3]
[DEBUG] Testing adding a new unit... Hidden layers: [8, 6, 4, 5, 6, 3]
[DEBUG] Testing adding a new unit... Hidden layers: [8, 6, 4, 5, 5, 4]
DEBUG] SAVED THIS CONFIGURATION.
_________________________________________________________________
Layer (type)                 Output Shape              Param #
=================================================================
dense_194 (Dense)            (None, 8)                 40
_________________________________________________________________
dense_195 (Dense)            (None, 6)                 54
_________________________________________________________________
dense_196 (Dense)            (None, 4)                 28
_________________________________________________________________
dense_197 (Dense)            (None, 5)                 25
_________________________________________________________________
dense_198 (Dense)            (None, 5)                 30
_________________________________________________________________
dense_199 (Dense)            (None, 4)                 24
_________________________________________________________________
dense_200 (Dense)            (None, 10)                50
=================================================================
Total params: 251
Trainable params: 251
Non-trainable params: 0
_________________________________________________________________

 32/540 [>.............................] - ETA: 8s
540/540 [==============================] - 1s 1ms/step
[DEBUG] NN Evaluated Accuracy = 0.4481481479273902.
Added new unit - Nescience:  0.5630099565985784
[DEBUG] Nescience has been reduced after adding new unit
Tolerance: 0.02657205000000001
[DEBUG] Testing adding a new feature to cnn. 5 nº of features.
[DEBUG] Testing adding a new layer... Current hidden layers: [8, 6, 4, 5, 5, 4, 3].
DEBUG] SAVED THIS CONFIGURATION.
_________________________________________________________________
Layer (type)                 Output Shape              Param #
=================================================================
dense_208 (Dense)            (None, 8)                 40
_________________________________________________________________
dense_209 (Dense)            (None, 6)                 54
_________________________________________________________________
dense_210 (Dense)            (None, 4)                 28
_________________________________________________________________
dense_211 (Dense)            (None, 5)                 25
_________________________________________________________________
dense_212 (Dense)            (None, 5)                 30
_________________________________________________________________
dense_213 (Dense)            (None, 4)                 24
_________________________________________________________________
dense_214 (Dense)            (None, 3)                 15
_________________________________________________________________
dense_215 (Dense)            (None, 10)                40
=================================================================
Total params: 256
Trainable params: 256
Non-trainable params: 0
_________________________________________________________________

 32/540 [>.............................] - ETA: 9s
540/540 [==============================] - 1s 1ms/step
[DEBUG] NN Evaluated Accuracy = 0.42037036992885446.
Added new layer - Nescience:  0.5767848115072496
[DEBUG] Testing adding a new unit... Hidden layers: [9, 6, 4, 5, 5, 4, 3]
[DEBUG] Testing adding a new unit... Hidden layers: [8, 7, 4, 5, 5, 4, 3]
DEBUG] SAVED THIS CONFIGURATION.
_________________________________________________________________
Layer (type)                 Output Shape              Param #
=================================================================
dense_224 (Dense)            (None, 8)                 40
_________________________________________________________________
dense_225 (Dense)            (None, 7)                 63
_________________________________________________________________
dense_226 (Dense)            (None, 4)                 32
_________________________________________________________________
dense_227 (Dense)            (None, 5)                 25
_________________________________________________________________
dense_228 (Dense)            (None, 5)                 30
_________________________________________________________________
dense_229 (Dense)            (None, 4)                 24
_________________________________________________________________
dense_230 (Dense)            (None, 3)                 15
_________________________________________________________________
dense_231 (Dense)            (None, 10)                40
=================================================================
Total params: 269
Trainable params: 269
Non-trainable params: 0
_________________________________________________________________

 32/540 [>.............................] - ETA: 15s
540/540 [==============================] - 1s 2ms/step
[DEBUG] NN Evaluated Accuracy = 0.35925925992153307.
Added new unit - Nescience:  0.6020314263592137
[DEBUG] Nescience has been reduced after adding new unit
[DEBUG] Testing adding a new unit... Hidden layers: [8, 7, 5, 5, 5, 4, 3]
[DEBUG] Testing adding a new unit... Hidden layers: [8, 7, 4, 6, 5, 4, 3]
[DEBUG] Testing adding a new unit... Hidden layers: [8, 7, 4, 5, 6, 4, 3]
DEBUG] SAVED THIS CONFIGURATION.
_________________________________________________________________
Layer (type)                 Output Shape              Param #
=================================================================
dense_248 (Dense)            (None, 8)                 40
_________________________________________________________________
dense_249 (Dense)            (None, 7)                 63
_________________________________________________________________
dense_250 (Dense)            (None, 4)                 32
_________________________________________________________________
dense_251 (Dense)            (None, 5)                 25
_________________________________________________________________
dense_252 (Dense)            (None, 6)                 36
_________________________________________________________________
dense_253 (Dense)            (None, 4)                 28
_________________________________________________________________
dense_254 (Dense)            (None, 3)                 15
_________________________________________________________________
dense_255 (Dense)            (None, 10)                40
=================================================================
Total params: 279
Trainable params: 279
Non-trainable params: 0
_________________________________________________________________

 32/540 [>.............................] - ETA: 10s
540/540 [==============================] - 1s 1ms/step
[DEBUG] NN Evaluated Accuracy = 0.48148148081920766.
Added new unit - Nescience:  0.5578716264369723
…
    A2 = np.relu(Z2)
    Z3 = np.matmul(W3, A2) + b3
    A3 = np.relu(Z3)
    Z4 = np.matmul(W4, A3) + b4
    A4 = np.relu(Z4)
    Z5 = np.matmul(W5, A4) + b5
    A5 = np.relu(Z5)
    Z6 = np.matmul(W6, A5) + b6
    A6 = np.relu(Z6)
    Z7 = np.matmul(W7, A6) + b7
    A7 = np.relu(Z7)
    Z8 = np.matmul(W8, A7) + b8
    A8 = self.softmax(Z8)
    predictions = A8 > 0.5

    return predictions

_________________________________________________________________
Layer (type)                 Output Shape              Param #
=================================================================
dense_248 (Dense)            (None, 8)                 40
_________________________________________________________________
dense_249 (Dense)            (None, 7)                 63
_________________________________________________________________
dense_250 (Dense)            (None, 4)                 32
_________________________________________________________________
dense_251 (Dense)            (None, 5)                 25
_________________________________________________________________
dense_252 (Dense)            (None, 6)                 36
_________________________________________________________________
dense_253 (Dense)            (None, 4)                 28
_________________________________________________________________
dense_254 (Dense)            (None, 3)                 15
_________________________________________________________________
dense_255 (Dense)            (None, 10)                40
=================================================================
Total params: 279
Trainable params: 279
Non-trainable params: 0
_________________________________________________________________
Total elapsed time for obtaining final network: 1145.622338294983 s.
Proceeding to test obtained network with whole dataset:
Input data shape: (1797, 4), Output data shape: (1797, 10).
Neural Network to test:
_________________________________________________________________
Layer (type)                 Output Shape              Param #
=================================================================
dense_248 (Dense)            (None, 8)                 40
_________________________________________________________________
dense_249 (Dense)            (None, 7)                 63
_________________________________________________________________
dense_250 (Dense)            (None, 4)                 32
_________________________________________________________________
dense_251 (Dense)            (None, 5)                 25
_________________________________________________________________
dense_252 (Dense)            (None, 6)                 36
_________________________________________________________________
dense_253 (Dense)            (None, 4)                 28
_________________________________________________________________
dense_254 (Dense)            (None, 3)                 15
_________________________________________________________________
dense_255 (Dense)            (None, 10)                40
=================================================================
Total params: 279
Trainable params: 279
Non-trainable params: 0
_________________________________________________________________

  32/1797 [..............................] - ETA: 0s
 736/1797 [===========>..................] - ETA: 0s
1440/1797 [=======================>......] - ETA: 0s
1797/1797 [==============================] - 0s 75us/step
…
