…
171/171 [==============================] - 0s 41us/step
[DEBUG] NN Evaluated Accuracy = 0.8830409370667753.
Miscoding:  0.8705571939465524 Inaccuracy:  0.1611328125 Redundancy:  0.3445945945945946 Nescience:  0.29249142352739504
[DEBUG] Adding new feature to cnn. 2 nº of features.
[DEBUG] Testing adding a new layer... Current hidden layers: [3, 3].
DEBUG] SAVED THIS CONFIGURATION.
_________________________________________________________________
Layer (type)                 Output Shape              Param #
=================================================================
dense_5 (Dense)              (None, 3)                 6
_________________________________________________________________
dense_6 (Dense)              (None, 3)                 12
_________________________________________________________________
dense_7 (Dense)              (None, 2)                 8
=================================================================
Total params: 26
Trainable params: 26
Non-trainable params: 0
_________________________________________________________________
171/171 [==============================] - 0s 409us/step
[DEBUG] NN Evaluated Accuracy = 0.9064327499322724.
Added new layer - Nescience:  0.27599381439635967
[DEBUG] Testing adding a new unit... Hidden layers: [4, 3]
DEBUG] SAVED THIS CONFIGURATION.
_________________________________________________________________
Layer (type)                 Output Shape              Param #
=================================================================
dense_8 (Dense)              (None, 4)                 8
_________________________________________________________________
dense_9 (Dense)              (None, 3)                 15
_________________________________________________________________
dense_10 (Dense)             (None, 2)                 8
=================================================================
Total params: 31
Trainable params: 31
Non-trainable params: 0
_________________________________________________________________
171/171 [==============================] - 0s 524us/step
[DEBUG] NN Evaluated Accuracy = 0.9064327481894465.
Added new unit - Nescience:  0.27338093013860504
[DEBUG] Nescience has been reduced after adding new unit
[DEBUG] Testing adding a new unit... Hidden layers: [4, 4]
DEBUG] SAVED THIS CONFIGURATION.
_________________________________________________________________
Layer (type)                 Output Shape              Param #
=================================================================
dense_11 (Dense)             (None, 4)                 8
_________________________________________________________________
dense_12 (Dense)             (None, 4)                 20
_________________________________________________________________
dense_13 (Dense)             (None, 2)                 10
=================================================================
Total params: 38
Trainable params: 38
Non-trainable params: 0
_________________________________________________________________
171/171 [==============================] - 0s 596us/step
[DEBUG] NN Evaluated Accuracy = 0.9005847949730722.
Added new unit - Nescience:  0.2767096334716081
[DEBUG] Nescience has been reduced after adding new unit
Tolerance: 0.045000000000000005
[DEBUG] Adding new feature to cnn. 2 nº of features.
DEBUG] Nescience reduced - SAVED THIS CONFIGURATION.
_________________________________________________________________
Layer (type)                 Output Shape              Param #
=================================================================
dense_14 (Dense)             (None, 4)                 12
_________________________________________________________________
dense_15 (Dense)             (None, 4)                 20
_________________________________________________________________
dense_16 (Dense)             (None, 2)                 10
=================================================================
Total params: 42
Trainable params: 42
Non-trainable params: 0
_________________________________________________________________
171/171 [==============================] - 0s 721us/step
[DEBUG] NN Evaluated Accuracy = 0.941520469230518.
Added new feature - Nescience:  0.24872356209058183
[DEBUG] Testing adding a new layer... Current hidden layers: [4, 4, 3].
[DEBUG] Testing adding a new unit... Hidden layers: [5, 4]
DEBUG] SAVED THIS CONFIGURATION.
_________________________________________________________________
Layer (type)                 Output Shape              Param #
=================================================================
dense_21 (Dense)             (None, 5)                 15
_________________________________________________________________
dense_22 (Dense)             (None, 4)                 24
_________________________________________________________________
dense_23 (Dense)             (None, 2)                 10
=================================================================
Total params: 49
Trainable params: 49
Non-trainable params: 0
_________________________________________________________________
171/171 [==============================] - 0s 914us/step
[DEBUG] NN Evaluated Accuracy = 0.9532163756632666.
Added new unit - Nescience:  0.27199543565707457
[DEBUG] Nescience has been reduced after adding new unit
[DEBUG] Testing adding a new unit... Hidden layers: [5, 5]
DEBUG] SAVED THIS CONFIGURATION.
_________________________________________________________________
Layer (type)                 Output Shape              Param #
=================================================================
dense_24 (Dense)             (None, 5)                 15
_________________________________________________________________
dense_25 (Dense)             (None, 5)                 30
_________________________________________________________________
dense_26 (Dense)             (None, 2)                 12
=================================================================
Total params: 57
Trainable params: 57
Non-trainable params: 0
_________________________________________________________________
171/171 [==============================] - 0s 978us/step
[DEBUG] NN Evaluated Accuracy = 0.9473684224468922.
Added new unit - Nescience:  0.2505496638860092
[DEBUG] Nescience has been reduced after adding new unit
Tolerance: 0.04050000000000001
[DEBUG] Adding new feature to cnn. 3 nº of features.
DEBUG] Nescience reduced - SAVED THIS CONFIGURATION.
_________________________________________________________________
Layer (type)                 Output Shape              Param #
=================================================================
dense_27 (Dense)             (None, 5)                 20
_________________________________________________________________
dense_28 (Dense)             (None, 5)                 30
_________________________________________________________________
dense_29 (Dense)             (None, 2)                 12
=================================================================
Total params: 62
Trainable params: 62
Non-trainable params: 0
_________________________________________________________________
171/171 [==============================] - 0s 1ms/step
[DEBUG] NN Evaluated Accuracy = 0.9532163756632666.
Added new feature - Nescience:  0.2614567195248603
[DEBUG] Testing adding a new layer... Current hidden layers: [5, 5, 3].
[DEBUG] Testing adding a new unit... Hidden layers: [6, 5]
[DEBUG] Testing adding a new unit... Hidden layers: [5, 6]
DEBUG] SAVED THIS CONFIGURATION.
_________________________________________________________________
Layer (type)                 Output Shape              Param #
=================================================================
dense_37 (Dense)             (None, 5)                 20
_________________________________________________________________
dense_38 (Dense)             (None, 6)                 36
_________________________________________________________________
dense_39 (Dense)             (None, 2)                 14
=================================================================
Total params: 70
Trainable params: 70
Non-trainable params: 0
_________________________________________________________________
171/171 [==============================] - 0s 1ms/step
[DEBUG] NN Evaluated Accuracy = 0.9532163756632666.
Added new unit - Nescience:  0.2535231457560099
[DEBUG] Nescience has been reduced after adding new unit
Tolerance: 0.03645000000000001
[DEBUG] Adding new feature to cnn. 4 nº of features.
[DEBUG] Testing adding a new layer... Current hidden layers: [5, 6, 3].
DEBUG] SAVED THIS CONFIGURATION.
_________________________________________________________________
Layer (type)                 Output Shape              Param #
=================================================================
dense_43 (Dense)             (None, 5)                 20
_________________________________________________________________
dense_44 (Dense)             (None, 6)                 36
_________________________________________________________________
dense_45 (Dense)             (None, 3)                 21
_________________________________________________________________
dense_46 (Dense)             (None, 2)                 8
=================================================================
Total params: 85
Trainable params: 85
Non-trainable params: 0
_________________________________________________________________
171/171 [==============================] - 0s 2ms/step
[DEBUG] NN Evaluated Accuracy = 0.9356725160141437.
Added new layer - Nescience:  0.23925968467987785
[DEBUG] Testing adding a new unit... Hidden layers: [6, 6, 3]
[DEBUG] Testing adding a new unit... Hidden layers: [5, 7, 3]
[DEBUG] Testing adding a new unit... Hidden layers: [5, 6, 4]
Tolerance: 0.03280500000000001
[DEBUG] Adding new feature to cnn. 4 nº of features.
DEBUG] Nescience reduced - SAVED THIS CONFIGURATION.
_________________________________________________________________
Layer (type)                 Output Shape              Param #
=================================================================
dense_59 (Dense)             (None, 5)                 25
_________________________________________________________________
dense_60 (Dense)             (None, 6)                 36
_________________________________________________________________
dense_61 (Dense)             (None, 3)                 21
_________________________________________________________________
dense_62 (Dense)             (None, 2)                 8
=================================================================
Total params: 90
Trainable params: 90
Non-trainable params: 0
_________________________________________________________________
171/171 [==============================] - 0s 2ms/step
[DEBUG] NN Evaluated Accuracy = 0.9181286546221951.
Added new feature - Nescience:  0.2664629165201797
[DEBUG] Testing adding a new layer... Current hidden layers: [5, 6, 3, 3].
DEBUG] SAVED THIS CONFIGURATION.
_________________________________________________________________
Layer (type)                 Output Shape              Param #
=================================================================
dense_63 (Dense)             (None, 5)                 25
_________________________________________________________________
dense_64 (Dense)             (None, 6)                 36
_________________________________________________________________
dense_65 (Dense)             (None, 3)                 21
_________________________________________________________________
dense_66 (Dense)             (None, 3)                 12
_________________________________________________________________
dense_67 (Dense)             (None, 2)                 8
=================================================================
Total params: 102
Trainable params: 102
Non-trainable params: 0
_________________________________________________________________
171/171 [==============================] - 1s 3ms/step
[DEBUG] NN Evaluated Accuracy = 0.9181286546221951.
Added new layer - Nescience:  0.2675083274564099
[DEBUG] Testing adding a new unit... Hidden layers: [6, 6, 3, 3]
[DEBUG] Testing adding a new unit... Hidden layers: [5, 7, 3, 3]
[DEBUG] Testing adding a new unit... Hidden layers: [5, 6, 4, 3]
[DEBUG] Testing adding a new unit... Hidden layers: [5, 6, 3, 4]
DEBUG] SAVED THIS CONFIGURATION.
_________________________________________________________________
Layer (type)                 Output Shape              Param #
=================================================================
dense_83 (Dense)             (None, 5)                 25
_________________________________________________________________
dense_84 (Dense)             (None, 6)                 36
_________________________________________________________________
dense_85 (Dense)             (None, 3)                 21
_________________________________________________________________
dense_86 (Dense)             (None, 4)                 16
_________________________________________________________________
dense_87 (Dense)             (None, 2)                 10
=================================================================
Total params: 108
Trainable params: 108
Non-trainable params: 0
_________________________________________________________________
171/171 [==============================] - 0s 3ms/step
[DEBUG] NN Evaluated Accuracy = 0.941520469230518.
Added new unit - Nescience:  0.24580134180920946
[DEBUG] Nescience has been reduced after adding new unit
Tolerance: 0.02952450000000001
[DEBUG] Adding new feature to cnn. 5 nº of features.
[DEBUG] Testing adding a new layer... Current hidden layers: [5, 6, 3, 4, 3].
[DEBUG] Testing adding a new unit... Hidden layers: [6, 6, 3, 4]
[DEBUG] Testing adding a new unit... Hidden layers: [5, 7, 3, 4]
DEBUG] SAVED THIS CONFIGURATION.
_________________________________________________________________
Layer (type)                 Output Shape              Param #
=================================================================
dense_104 (Dense)            (None, 5)                 25
_________________________________________________________________
dense_105 (Dense)            (None, 7)                 42
_________________________________________________________________
dense_106 (Dense)            (None, 3)                 24
_________________________________________________________________
dense_107 (Dense)            (None, 4)                 16
_________________________________________________________________
dense_108 (Dense)            (None, 2)                 10
=================================================================
Total params: 117
Trainable params: 117
Non-trainable params: 0
_________________________________________________________________
171/171 [==============================] - 1s 3ms/step
[DEBUG] NN Evaluated Accuracy = 0.9181286546221951.
Added new unit - Nescience:  0.2624566110284812
[DEBUG] Nescience has been reduced after adding new unit
[DEBUG] Testing adding a new unit... Hidden layers: [5, 7, 4, 4]
DEBUG] SAVED THIS CONFIGURATION.
_________________________________________________________________
Layer (type)                 Output Shape              Param #
=================================================================
dense_109 (Dense)            (None, 5)                 25
_________________________________________________________________
dense_110 (Dense)            (None, 7)                 42
_________________________________________________________________
dense_111 (Dense)            (None, 4)                 32
_________________________________________________________________
dense_112 (Dense)            (None, 4)                 20
_________________________________________________________________
dense_113 (Dense)            (None, 2)                 10
=================================================================
Total params: 129
Trainable params: 129
Non-trainable params: 0
_________________________________________________________________
171/171 [==============================] - 1s 4ms/step
[DEBUG] NN Evaluated Accuracy = 0.9239766078385693.
Added new unit - Nescience:  0.26358989556465556
[DEBUG] Nescience has been reduced after adding new unit
[DEBUG] Testing adding a new unit... Hidden layers: [5, 7, 4, 5]
DEBUG] SAVED THIS CONFIGURATION.
_________________________________________________________________
Layer (type)                 Output Shape              Param #
=================================================================
dense_114 (Dense)            (None, 5)                 25
_________________________________________________________________
dense_115 (Dense)            (None, 7)                 42
_________________________________________________________________
dense_116 (Dense)            (None, 4)                 32
_________________________________________________________________
dense_117 (Dense)            (None, 5)                 25
_________________________________________________________________
dense_118 (Dense)            (None, 2)                 12
=================================================================
Total params: 136
Trainable params: 136
Non-trainable params: 0
_________________________________________________________________
171/171 [==============================] - 1s 4ms/step
[DEBUG] NN Evaluated Accuracy = 0.894736841756698.
Added new unit - Nescience:  0.2774850038624871
[DEBUG] Nescience has been reduced after adding new unit
Tolerance: 0.02657205000000001
[DEBUG] Adding new feature to cnn. 5 nº of features.
DEBUG] Nescience reduced - SAVED THIS CONFIGURATION.
_________________________________________________________________
Layer (type)                 Output Shape              Param #
=================================================================
dense_119 (Dense)            (None, 5)                 30
_________________________________________________________________
dense_120 (Dense)            (None, 7)                 42
_________________________________________________________________
dense_121 (Dense)            (None, 4)                 32
_________________________________________________________________
dense_122 (Dense)            (None, 5)                 25
_________________________________________________________________
dense_123 (Dense)            (None, 2)                 12
=================================================================
Total params: 141
Trainable params: 141
Non-trainable params: 0
_________________________________________________________________
171/171 [==============================] - 1s 4ms/step
[DEBUG] NN Evaluated Accuracy = 0.9356725142713178.
Added new feature - Nescience:  0.24920404578339034
[DEBUG] Testing adding a new layer... Current hidden layers: [5, 7, 4, 5, 3].
DEBUG] SAVED THIS CONFIGURATION.
_________________________________________________________________
Layer (type)                 Output Shape              Param #
=================================================================
dense_124 (Dense)            (None, 5)                 30
_________________________________________________________________
dense_125 (Dense)            (None, 7)                 42
_________________________________________________________________
dense_126 (Dense)            (None, 4)                 32
_________________________________________________________________
dense_127 (Dense)            (None, 5)                 25
_________________________________________________________________
dense_128 (Dense)            (None, 3)                 18
_________________________________________________________________
dense_129 (Dense)            (None, 2)                 8
=================================================================
Total params: 155
Trainable params: 155
Non-trainable params: 0
_________________________________________________________________
171/171 [==============================] - 1s 4ms/step
[DEBUG] NN Evaluated Accuracy = 0.9356725160141437.
Added new layer - Nescience:  0.24712667271804986
[DEBUG] Testing adding a new unit... Hidden layers: [6, 7, 4, 5, 3]
[DEBUG] Testing adding a new unit... Hidden layers: [5, 8, 4, 5, 3]
[DEBUG] Testing adding a new unit... Hidden layers: [5, 7, 5, 5, 3]
DEBUG] SAVED THIS CONFIGURATION.
_________________________________________________________________
Layer (type)                 Output Shape              Param #
=================================================================
dense_142 (Dense)            (None, 5)                 30
_________________________________________________________________
dense_143 (Dense)            (None, 7)                 42
_________________________________________________________________
dense_144 (Dense)            (None, 5)                 40
_________________________________________________________________
dense_145 (Dense)            (None, 5)                 30
_________________________________________________________________
dense_146 (Dense)            (None, 3)                 18
_________________________________________________________________
dense_147 (Dense)            (None, 2)                 8
=================================================================
Total params: 168
Trainable params: 168
Non-trainable params: 0
_________________________________________________________________
171/171 [==============================] - 1s 6ms/step
[DEBUG] NN Evaluated Accuracy = 0.9181286546221951.
Added new unit - Nescience:  0.25589932456425557
[DEBUG] Nescience has been reduced after adding new unit
[DEBUG] Testing adding a new unit... Hidden layers: [5, 7, 5, 6, 3]
DEBUG] SAVED THIS CONFIGURATION.
_________________________________________________________________
Layer (type)                 Output Shape              Param #
=================================================================
dense_148 (Dense)            (None, 5)                 30
_________________________________________________________________
dense_149 (Dense)            (None, 7)                 42
_________________________________________________________________
dense_150 (Dense)            (None, 5)                 40
_________________________________________________________________
dense_151 (Dense)            (None, 6)                 36
_________________________________________________________________
dense_152 (Dense)            (None, 3)                 21
_________________________________________________________________
dense_153 (Dense)            (None, 2)                 8
=================================================================
Total params: 177
Trainable params: 177
Non-trainable params: 0
_________________________________________________________________
171/171 [==============================] - 1s 5ms/step
[DEBUG] NN Evaluated Accuracy = 0.9239766074900042.
Added new unit - Nescience:  0.25327214743042825
[DEBUG] Nescience has been reduced after adding new unit
[DEBUG] Testing adding a new unit... Hidden layers: [5, 7, 5, 6, 4]
DEBUG] SAVED THIS CONFIGURATION.
_________________________________________________________________
Layer (type)                 Output Shape              Param #
=================================================================
dense_154 (Dense)            (None, 5)                 30
_________________________________________________________________
dense_155 (Dense)            (None, 7)                 42
_________________________________________________________________
dense_156 (Dense)            (None, 5)                 40
_________________________________________________________________
dense_157 (Dense)            (None, 6)                 36
_________________________________________________________________
dense_158 (Dense)            (None, 4)                 28
_________________________________________________________________
dense_159 (Dense)            (None, 2)                 10
=================================================================
Total params: 186
Trainable params: 186
Non-trainable params: 0
_________________________________________________________________
171/171 [==============================] - 1s 6ms/step
[DEBUG] NN Evaluated Accuracy = 0.9239766078385693.
Added new unit - Nescience:  0.25894663123767303
[DEBUG] Nescience has been reduced after adding new unit
Tolerance: 0.02391484500000001
[DEBUG] Adding new feature to cnn. 6 nº of features.
DEBUG] Nescience reduced - SAVED THIS CONFIGURATION.
_________________________________________________________________
Layer (type)                 Output Shape              Param #
=================================================================
dense_160 (Dense)            (None, 5)                 35
_________________________________________________________________
dense_161 (Dense)            (None, 7)                 42
_________________________________________________________________
dense_162 (Dense)            (None, 5)                 40
_________________________________________________________________
dense_163 (Dense)            (None, 6)                 36
_________________________________________________________________
dense_164 (Dense)            (None, 4)                 28
_________________________________________________________________
dense_165 (Dense)            (None, 2)                 10
=================================================================
Total params: 191
Trainable params: 191
Non-trainable params: 0
_________________________________________________________________
171/171 [==============================] - 1s 5ms/step
[DEBUG] NN Evaluated Accuracy = 0.9415204674876921.
Added new feature - Nescience:  0.23000825480917333
[DEBUG] Testing adding a new layer... Current hidden layers: [5, 7, 5, 6, 4, 3].
[DEBUG] Testing adding a new unit... Hidden layers: [6, 7, 5, 6, 4]
[DEBUG] Testing adding a new unit... Hidden layers: [5, 8, 5, 6, 4]
[DEBUG] Testing adding a new unit... Hidden layers: [5, 7, 6, 6, 4]
[DEBUG] Testing adding a new unit... Hidden layers: [5, 7, 5, 7, 4]
[DEBUG] Testing adding a new unit... Hidden layers: [5, 7, 5, 6, 5]
DEBUG] SAVED THIS CONFIGURATION.
_________________________________________________________________
Layer (type)                 Output Shape              Param #
=================================================================
dense_197 (Dense)            (None, 5)                 35
_________________________________________________________________
dense_198 (Dense)            (None, 7)                 42
_________________________________________________________________
dense_199 (Dense)            (None, 5)                 40
_________________________________________________________________
dense_200 (Dense)            (None, 6)                 36
_________________________________________________________________
dense_201 (Dense)            (None, 5)                 35
_________________________________________________________________
dense_202 (Dense)            (None, 2)                 12
=================================================================
Total params: 200
Trainable params: 200
Non-trainable params: 0
_________________________________________________________________
171/171 [==============================] - 1s 6ms/step
[DEBUG] NN Evaluated Accuracy = 0.9356725160141437.
Added new unit - Nescience:  0.23790557454660832
[DEBUG] Nescience has been reduced after adding new unit
Tolerance: 0.021523360500000012
[DEBUG] Adding new feature to cnn. 7 nº of features.
[DEBUG] Testing adding a new layer... Current hidden layers: [5, 7, 5, 6, 5, 3].
DEBUG] SAVED THIS CONFIGURATION.
_________________________________________________________________
Layer (type)                 Output Shape              Param #
=================================================================
dense_209 (Dense)            (None, 5)                 35
_________________________________________________________________
dense_210 (Dense)            (None, 7)                 42
_________________________________________________________________
dense_211 (Dense)            (None, 5)                 40
_________________________________________________________________
dense_212 (Dense)            (None, 6)                 36
_________________________________________________________________
dense_213 (Dense)            (None, 5)                 35
_________________________________________________________________
dense_214 (Dense)            (None, 3)                 18
_________________________________________________________________
dense_215 (Dense)            (None, 2)                 8
=================================================================
Total params: 214
Trainable params: 214
Non-trainable params: 0
_________________________________________________________________
171/171 [==============================] - 1s 7ms/step
[DEBUG] NN Evaluated Accuracy = 0.9298245627977695.
Added new layer - Nescience:  0.24761491032838479
[DEBUG] Testing adding a new unit... Hidden layers: [6, 7, 5, 6, 5, 3]
[DEBUG] Testing adding a new unit... Hidden layers: [5, 8, 5, 6, 5, 3]
DEBUG] SAVED THIS CONFIGURATION.
_________________________________________________________________
Layer (type)                 Output Shape              Param #
=================================================================
dense_223 (Dense)            (None, 5)                 35
_________________________________________________________________
dense_224 (Dense)            (None, 8)                 48
_________________________________________________________________
dense_225 (Dense)            (None, 5)                 45
_________________________________________________________________
dense_226 (Dense)            (None, 6)                 36
_________________________________________________________________
dense_227 (Dense)            (None, 5)                 35
_________________________________________________________________
dense_228 (Dense)            (None, 3)                 18
_________________________________________________________________
dense_229 (Dense)            (None, 2)                 8
=================================================================
Total params: 225
Trainable params: 225
Non-trainable params: 0
_________________________________________________________________
171/171 [==============================] - 1s 7ms/step
[DEBUG] NN Evaluated Accuracy = 0.9473684207040663.
Added new unit - Nescience:  0.23191762710135883
[DEBUG] Nescience has been reduced after adding new unit
[DEBUG] Testing adding a new unit... Hidden layers: [5, 8, 6, 6, 5, 3]
[DEBUG] Testing adding a new unit... Hidden layers: [5, 8, 5, 7, 5, 3]
DEBUG] SAVED THIS CONFIGURATION.
_________________________________________________________________
Layer (type)                 Output Shape              Param #
=================================================================
dense_237 (Dense)            (None, 5)                 35
_________________________________________________________________
dense_238 (Dense)            (None, 8)                 48
_________________________________________________________________
dense_239 (Dense)            (None, 5)                 45
_________________________________________________________________
dense_240 (Dense)            (None, 7)                 42
_________________________________________________________________
dense_241 (Dense)            (None, 5)                 40
_________________________________________________________________
dense_242 (Dense)            (None, 3)                 18
_________________________________________________________________
dense_243 (Dense)            (None, 2)                 8
=================================================================
Total params: 236
Trainable params: 236
Non-trainable params: 0
_________________________________________________________________
171/171 [==============================] - 1s 7ms/step
[DEBUG] NN Evaluated Accuracy = 0.9181286542736299.
Added new unit - Nescience:  0.24283722195267562
[DEBUG] Nescience has been reduced after adding new unit
[DEBUG] Testing adding a new unit... Hidden layers: [5, 8, 5, 7, 6, 3]
DEBUG] SAVED THIS CONFIGURATION.
_________________________________________________________________
Layer (type)                 Output Shape              Param #
=================================================================
dense_244 (Dense)            (None, 5)                 35
_________________________________________________________________
dense_245 (Dense)            (None, 8)                 48
_________________________________________________________________
dense_246 (Dense)            (None, 5)                 45
_________________________________________________________________
dense_247 (Dense)            (None, 7)                 42
_________________________________________________________________
dense_248 (Dense)            (None, 6)                 48
_________________________________________________________________
dense_249 (Dense)            (None, 3)                 21
_________________________________________________________________
dense_250 (Dense)            (None, 2)                 8
=================================================================
Total params: 247
Trainable params: 247
Non-trainable params: 0
_________________________________________________________________
171/171 [==============================] - 1s 7ms/step
[DEBUG] NN Evaluated Accuracy = 0.9005847949730722.
Added new unit - Nescience:  0.2433690731384865
[DEBUG] Nescience has been reduced after adding new unit
[DEBUG] Testing adding a new unit... Hidden layers: [5, 8, 5, 7, 6, 4]
Tolerance: 0.01937102445000001
[DEBUG] Adding new feature to cnn. 7 nº of features.
DEBUG] Nescience reduced - SAVED THIS CONFIGURATION.
_________________________________________________________________
Layer (type)                 Output Shape              Param #
=================================================================
dense_258 (Dense)            (None, 5)                 40
_________________________________________________________________
dense_259 (Dense)            (None, 8)                 48
_________________________________________________________________
dense_260 (Dense)            (None, 5)                 45
_________________________________________________________________
dense_261 (Dense)            (None, 7)                 42
_________________________________________________________________
dense_262 (Dense)            (None, 6)                 48
_________________________________________________________________
dense_263 (Dense)            (None, 3)                 21
_________________________________________________________________
dense_264 (Dense)            (None, 2)                 8
=================================================================
Total params: 252
Trainable params: 252
Non-trainable params: 0
_________________________________________________________________
171/171 [==============================] - 1s 8ms/step
[DEBUG] NN Evaluated Accuracy = 0.918128656365021.
Added new feature - Nescience:  0.22755164958022114
[DEBUG] Testing adding a new layer... Current hidden layers: [5, 8, 5, 7, 6, 3, 3].
[DEBUG] Testing adding a new unit... Hidden layers: [6, 8, 5, 7, 6, 3]
[DEBUG] Testing adding a new unit... Hidden layers: [5, 9, 5, 7, 6, 3]
DEBUG] SAVED THIS CONFIGURATION.
_________________________________________________________________
Layer (type)                 Output Shape              Param #
=================================================================
dense_280 (Dense)            (None, 5)                 40
_________________________________________________________________
dense_281 (Dense)            (None, 9)                 54
_________________________________________________________________
dense_282 (Dense)            (None, 5)                 50
_________________________________________________________________
dense_283 (Dense)            (None, 7)                 42
_________________________________________________________________
dense_284 (Dense)            (None, 6)                 48
_________________________________________________________________
dense_285 (Dense)            (None, 3)                 21
_________________________________________________________________
dense_286 (Dense)            (None, 2)                 8
=================================================================
Total params: 263
Trainable params: 263
Non-trainable params: 0
_________________________________________________________________
171/171 [==============================] - 1s 8ms/step
[DEBUG] NN Evaluated Accuracy = 0.941520469230518.
Added new unit - Nescience:  0.2201364168963272
[DEBUG] Nescience has been reduced after adding new unit
[DEBUG] Testing adding a new unit... Hidden layers: [5, 9, 6, 7, 6, 3]
DEBUG] SAVED THIS CONFIGURATION.
_________________________________________________________________
Layer (type)                 Output Shape              Param #
=================================================================
dense_287 (Dense)            (None, 5)                 40
_________________________________________________________________
dense_288 (Dense)            (None, 9)                 54
_________________________________________________________________
dense_289 (Dense)            (None, 6)                 60
_________________________________________________________________
dense_290 (Dense)            (None, 7)                 49
_________________________________________________________________
dense_291 (Dense)            (None, 6)                 48
_________________________________________________________________
dense_292 (Dense)            (None, 3)                 21
_________________________________________________________________
dense_293 (Dense)            (None, 2)                 8
=================================================================
Total params: 280
Trainable params: 280
Non-trainable params: 0
_________________________________________________________________
171/171 [==============================] - 1s 9ms/step
[DEBUG] NN Evaluated Accuracy = 0.9356725139227527.
Added new unit - Nescience:  0.19912685379617878
[DEBUG] Nescience has been reduced after adding new unit
[DEBUG] Testing adding a new unit... Hidden layers: [5, 9, 6, 8, 6, 3]
[DEBUG] Testing adding a new unit... Hidden layers: [5, 9, 6, 7, 7, 3]
DEBUG] SAVED THIS CONFIGURATION.
_________________________________________________________________
Layer (type)                 Output Shape              Param #
=================================================================
dense_301 (Dense)            (None, 5)                 40
_________________________________________________________________
dense_302 (Dense)            (None, 9)                 54
_________________________________________________________________
dense_303 (Dense)            (None, 6)                 60
_________________________________________________________________
dense_304 (Dense)            (None, 7)                 49
_________________________________________________________________
dense_305 (Dense)            (None, 7)                 56
_________________________________________________________________
dense_306 (Dense)            (None, 3)                 24
_________________________________________________________________
dense_307 (Dense)            (None, 2)                 8
=================================================================
Total params: 291
Trainable params: 291
Non-trainable params: 0
_________________________________________________________________
171/171 [==============================] - 2s 9ms/step
[DEBUG] NN Evaluated Accuracy = 0.9473684224468922.
Added new unit - Nescience:  0.20602704471394603
[DEBUG] Nescience has been reduced after adding new unit
[DEBUG] Testing adding a new unit... Hidden layers: [5, 9, 6, 7, 7, 4]
DEBUG] SAVED THIS CONFIGURATION.
_________________________________________________________________
Layer (type)                 Output Shape              Param #
=================================================================
dense_308 (Dense)            (None, 5)                 40
_________________________________________________________________
dense_309 (Dense)            (None, 9)                 54
_________________________________________________________________
dense_310 (Dense)            (None, 6)                 60
_________________________________________________________________
dense_311 (Dense)            (None, 7)                 49
_________________________________________________________________
dense_312 (Dense)            (None, 7)                 56
_________________________________________________________________
dense_313 (Dense)            (None, 4)                 32
_________________________________________________________________
dense_314 (Dense)            (None, 2)                 10
=================================================================
Total params: 301
Trainable params: 301
Non-trainable params: 0
_________________________________________________________________
171/171 [==============================] - 2s 9ms/step
[DEBUG] NN Evaluated Accuracy = 0.9356725142713178.
Added new unit - Nescience:  0.18745398009634673
[DEBUG] Nescience has been reduced after adding new unit
…
    A1 = np.relu(Z1)
    Z2 = np.matmul(W2, A1) + b2
    A2 = np.relu(Z2)
    Z3 = np.matmul(W3, A2) + b3
    A3 = np.relu(Z3)
    Z4 = np.matmul(W4, A3) + b4
    A4 = np.relu(Z4)
    Z5 = np.matmul(W5, A4) + b5
    A5 = np.relu(Z5)
    Z6 = np.matmul(W6, A5) + b6
    A6 = np.relu(Z6)
    Z7 = np.matmul(W7, A6) + b7
    A7 = self.softmax(Z7)
    predictions = A7 > 0.5

    return predictions

_________________________________________________________________
Layer (type)                 Output Shape              Param #
=================================================================
dense_308 (Dense)            (None, 5)                 40
_________________________________________________________________
dense_309 (Dense)            (None, 9)                 54
_________________________________________________________________
dense_310 (Dense)            (None, 6)                 60
_________________________________________________________________
dense_311 (Dense)            (None, 7)                 49
_________________________________________________________________
dense_312 (Dense)            (None, 7)                 56
_________________________________________________________________
dense_313 (Dense)            (None, 4)                 32
_________________________________________________________________
dense_314 (Dense)            (None, 2)                 10
=================================================================
Total params: 301
Trainable params: 301
Non-trainable params: 0
_________________________________________________________________
Total elapsed time for obtaining final network: 890.4930815696716 s.
